…
osaic=1.0, mixup=0.15, copy_paste=0.3\n\u001b[34m\u001b[1mClearML: \u001b[0mrun 'pip install clearml' to automatically track, visualize and remotely train YOLO 🚀 in ClearML\n\u001b[34m\u001b[1mComet: \u001b[0mrun 'pip install comet_ml' to automatically track and visualize YOLO 🚀 runs in Comet\n\u001b[34m\u001b[1mTensorBoard: \u001b[0mStart with 'tensorboard --logdir runs/train', view at http://localhost:6006/\nOverriding model.yaml nc=80 with nc=74\n\n                 from  n    params  module                                  arguments                     \n  0                -1  1      1856  models.common.Conv                      [3, 64, 3, 2]                 \n  1                -1  1     73984  models.common.Conv                      [64, 128, 3, 2]               \n  2                -1  1    212864  models.common.RepNCSPELAN4              [128, 256, 128, 64, 1]        \n  3                -1  1    164352  models.common.ADown                     [256, 256]                    \n  4                -1  1    847616  models.common.RepNCSPELAN4              [256, 512, 256, 128, 1]       \n  5                -1  1    656384  models.common.ADown                     [512, 512]                    \n  6                -1  1   2857472  models.common.RepNCSPELAN4              [512, 512, 512, 256, 1]       \n  7                -1  1    656384  models.common.ADown                     [512, 512]                    \n  8                -1  1   2857472  models.common.RepNCSPELAN4              [512, 512, 512, 256, 1]       \n  9                -1  1    656896  models.common.SPPELAN                   [512, 512, 256]               \n 10                -1  1         0  torch.nn.modules.upsampling.Upsample    [None, 2, 'nearest']          \n 11           [-1, 6]  1         0  models.common.Concat                    [1]                           \n 12                -1  1   3119616  models.common.RepNCSPELAN4              [1024, 512, 512, 256, 1]      \n 13                -1  1         0  torch.nn.modules.upsampling.Upsample    [None, 2, 'nearest']          \n 14           [-1, 4]  1         0  models.common.Concat                    [1]                           \n 15                -1  1    912640  models.common.RepNCSPELAN4              [1024, 256, 256, 128, 1]      \n 16                -1  1    164352  models.common.ADown                     [256, 256]                    \n 17          [-1, 12]  1         0  models.common.Concat                    [1]                           \n 18                -1  1   2988544  models.common.RepNCSPELAN4              [768, 512, 512, 256, 1]       \n 19                -1  1    656384  models.common.ADown                     [512, 512]                    \n 20           [-1, 9]  1         0  models.common.Concat                    [1]                           \n 21                -1  1   3119616  models.common.RepNCSPELAN4              [1024, 512, 512, 256, 1]      \n 22      [15, 18, 21]  1   5547694  models.yolo.DDetect                     [74, [256, 512, 512]]         \ngelan-c summary: 621 layers, 25494126 parameters, 25494110 gradients, 103.5 GFLOPs\n\nTransferred 931/937 items from /kaggle/working/weights/gelan-c.pt\n\u001b[34m\u001b[1mAMP: \u001b[0mchecks passed ✅\n\u001b[34m\u001b[1moptimizer:\u001b[0m SGD(lr=0.01) with p
…
